tflite_model.tflite (tflite, 320004 bytes, 4 tensors)

sequential/dense/BiasAdd/ReadVariableOp f4 [100]
00000000: 960d 653d a45f e23c 3d46 933d 42c5 15be
00000010: 0f21 d83d febf f03d 2b23 df3d faea 14bb
00000020: 6941 8bbd ba5c c73c c6eb 55bd 33b3 f93a
00000030: 6f80 34bd 8ad8 f93d f31c 39bc b082 cc3d
00000040: 1952 943b 9831 943d 6959 053e 22e7 843d
00000050: 8686 e9bd 2aab 553d e390 bfbd 6fcb 563e
00000060: 8f9e b13c 4470 183e a5d4 0b3e bf4b 0b3d
00000070: d97c 28bb ebe7 9b3d 75c8 24bd d011 b8bc
00000080: 58b2 093e 5120 293c 3d79 5fbb 61b4 6fbd
00000090: 7b5b ae3b d31c 2c3d fb0a 67bc f15f 883d
000000a0: 6e0e 6b3e 5595 3fbd f7b4 d939 b910 5b3d
000000b0: b6ae 703c beb5 4ebd b9ec 4a3d 2d89 063e
000000c0: cbf7 04bd 14a8 303d 44fc d03d 4437 f3bb
000000d0: 5f2a 6f3d e155 dcbd a9bf 71bd 785b fd3d
000000e0: 00ee 9c3d eb7b 5a3d 263d 05bd 883f 673d
000000f0: 77d0 74bd 5dcd d23c 026f 843d 7998 853d
00000100: 13a1 de3d 1fd4 ef3d dee9 efbd d89e 653d
00000110: bfda a03d c4fe 0b3e 696e 37bb 0c4c 70bd
00000120: 42f2 40bc 5e13 82bd b272 d5bb 37ef 283b
00000130: 20d3 3f3e 7290 ad3b 6d2a 5d3e 0b76 e4bd
00000140: 284a 893d 9212 813d 3930 b5bd 455c d9bc
00000150: 47cc 403d a87c 8fbb 6300 ddbb 18d5 de3d
00000160: fc04 ca3c b807 bb3d b1de 27bd a937 263d
00000170: badd 87bd 01a7 e83d b2eb 62bd 1fef 0c3d
00000180: 1fac 5abd f618 82bd 038b 7f3d b90a 393b
0.05592116 0.027633496 0.07191131 -0.14626029 0.105531804 0.117553696 0.1089538 -0.0022723065
-0.06799585 0.024336208 -0.052226804 0.0019050598 -0.044067796 0.12199505 -0.011298406 0.09985864
0.0045263884 0.07236022 0.13022389 0.064893976 -0.114026114 0.052165188 -0.09353807 0.20976041
0.021682052 0.14886576 0.13655336 0.034007784 -0.002570918 0.07612594 -0.040230233 -0.022469431
0.13446939 0.010322646 -0.0034099363 -0.058521632 0.005320964 0.042019676 -0.014101739 0.06658924
0.22954723 -0.046773273 0.00041524295 0.053482745 0.014690092 -0.05046629 0.049542163 0.13138266
-0.032462876 0.04312904 0.10204366 -0.0074223597 0.058390018 -0.107585676 -0.059020672 0.12370962
0.076625824 0.053340834 -0.03252902 0.056457072 -0.05976912 0.02573269 0.064664856 0.065232225
0.10870566 0.11710381 -0.117145285 0.05605969 0.078542225 0.13671404 -0.0027989394 -0.058666274
-0.011776509 -0.0635135 -0.006513917 0.0025777349 0.18732882 0.0052967602 0.21598215 -0.111553274
0.06703597 0.0630237 -0.08847088 -0.026533255 0.047069814 -0.004378874 -0.006744431 0.10880488
0.02466058 0.091323316 -0.04098386 0.040580425 -0.06634088 0.113599785 -0.055400558 0.03440773
-0.053386804 -0.06352417 0.06238843 0.002823515

sequential/dense_1/BiasAdd/ReadVariableOp f4 [10]
00000000: c3d4 02be 2a95 79bd adc1 d9bc 505f 97bd
00000010: 052f 163d b67a 0c3e 5668 aabd ce33 2abd
00000020: 567f 873d ab41 873d
-0.12776475 -0.06093327 -0.02658161 -0.07391226 0.036665935 0.13718686 -0.08320682 -0.04155331
0.06616084 0.06604322

sequential/dense/MatMul f4 [100, 784]
00000000: 2b3c 63bd 2c01 753d 3872 083d 1072 ccbb
00000010: 6450 a13c 3c54 753d 824e 823d cfbd 36bd
00000020: 1628 9c3d 58c5 1e3d 54ed 9d3d b849 593d
00000030: c05d 92bd 2179 573c c859 753d fa32 43bd
00000040: 1ce0 973c 88e6 63bc 5984 16bd 8097 b73b
00000050: 64c9 1a3d a09d a2bb c674 1b3d 44ef 07bd
00000060: 82a6 febc 4c07 323d b858 a33d bac4 8a3d
00000070: 2c5d 203d afa5 43bd 902a f5bb 4882 b53c
00000080: 0827 95bc 70fe 99bd 444a 01be a055 b9bc
00000090: e805 2bbe 62b6 30be 278f cdbd 22eb 313d
000000a0: 4f73 f83c 7285 b2bd 7b9d 53bc 1b2c afbd
000000b0: a8d5 77bd b49e e6bd 5601 bbbd a77e e6bd
000000c0: ac50 57be 801b 1bbe 8a51 613b 1218 fb3c
000000d0: b8a8 afbc 866b 0f3d 0094 273b 06ff a73d
000000e0: 3ef2 7bbd deb8 2a3d 26b2 aabc cd6c 51bb
000000f0: 3858 06be 4550 abbc 675b 6dbe 3fe1 2abe
00000100: 734e 0ebe ff83 39bc 9442 54be 0888 7dbe
00000110: e09b d2bd 9222 19be be81 35be 8065 bdbd
00000120: 5744 e53a 65ae 8b3d d6d0 04be 3c7e 63be
00000130: 9381 26be 8824 79be e9d9 24be bbbc 64be
00000140: 0fc5 8fbc a7f7 94bd a842 fe3c 1aa1 a9bc
00000150: cc0b 8b3d d296 a03d 2d74 da3c c1d6 afbb
00000160: 71ea d1bd 1900 7ebd 6889 3bbe 579a 63be
00000170: 6079 79be c183 62be 0cb7 c3bd 3589 cbbd
00000180: 7fee d4bd a1c8 6fbe 86dd 9dbe d8fc 6dbe
00000190: 364e a4bd 08eb cd3c 4507 2f3d bd62 d8bd
000001a0: 5f5f c6bd 9abd c9bd cd36 c9bd 0e2d 32be
000001b0: bf9d 1ebe b6b8 21be 9644 223d 1835 87bd
000001c0: 88e3 85bd ba66 623c 70ed f53d 4b07 90bc
000001d0: e313 d3bd 6997 9cbd 6a16 98bd a535 1abe
000001e0: 5da1 93be 6ed6 95be 786f 0dbe 360d 52be
000001f0: 735a 76be 6e58 a2be 0cd5 cfbe f452 73be
00000200: 1d0b 2ebe efac e5bd c635 743d 270e f7bc
00000210: 8ff8 833d f9b5 cfbc 13e3 46bc 6f51 00be
00000220: 3e2e 743d 0372 1f3e c76c 5abd a4b4 14bd
00000230: 6842 84bc fe4d a1bd fe88 dbbc 563b bd3d
00000240: 4b89 08bd 5fdd 89bd 6dd6 c3ba a573 f5bd
00000250: d00c a0bd 893e e5bd f942 ffbd 4d53 ccbd
00000260: 0960 04be 40ea 6abe 17a7 77be 0a33 f2bd
00000270: d8cf d6bd 1b35 b03b b292 973d 3556 b6bd
00000280: eb68 323c a889 1b3d 2c98 79bd 33f7 84bd
00000290: 762e aebd 9b7d 8abd e8d3 f3bd 1454 8b3d
000002a0: e703 2fbd 6b76 b73d ebbf db3d 8cb8 2d3e
000002b0: 43ae 663d 8d0c 58bb 3efc 0a3d db68 c6bd
000002c0: 8b98 f53c 67a1 cf3d 63b3 9e3d 2222 b1bc
000002d0: 626c 413d 5744 7a3d d2a6 cebc 011d 5cbc
000002e0: da07 4e3d b7c7 193e 3536 013d 6429 71bd
000002f0: d788 7f3d 0ea0 0c3d c86c 90bc 0403 5dbd
00000300: 6316 02be a4e0 7ebd a9ad 873d 70cb 1fbd
00000310: 84e0 96bd 32cd 823e 0320 e53d 60a9 3b3e
00000320: e65c 303c 0d0a 863d 0c90 9e3d 8920 62bd
00000330: 58c2 803c 4996 ff3c feed 29bc 222e f6ba
00000340: 9665 7a3d 954e 283d 3645 783d ecc7 9dbd
00000350: 4146 983d 886d 19bd 293d 22bd 9c07 703d
00000360: 89e7 10bd 9d18 2e3a aa7f cebc 94ff fdbd
00000370: 50c2 193c e240 013e 47fd 233e 168f 48be
00000380: cfa6 9abd 5dbf 703d 7db2 2e3e cdc5 013e
00000390: e77b 0f3e 95ad 713d 4b9b d1bd f026 adbc
000003a0: a68e c33d f206 563e 450c b63d fb12 083e
000003b0: 9220 0d3e f08a 023e 47c5 4c3c e92a f03a
000003c0: 5de7 dc3c 97c5 b6bd cfb5 a93d ad0e ffbc
000003d0: 77eb b33c 0298 5ebd b31f 193d f1e6 193d
000003e0: 6973 c0bd 0985 d53c 30ed 0a3d ecbb 9cbd
000003f0: 9157 79bc bde1 3dbc cc31 793e 74df b73c
-0.055477303 0.05981557 0.033312052 -0.0062391832 0.019691654 0.059894785 0.063626304 -0.04461461
0.07624833 0.03876242 0.07711282 0.05304882 -0.07146788 0.013151438 0.059900075 -0.047656037
0.01853948 -0.013909943 -0.03674731 0.005602777 0.037789717 -0.004962638 0.03795316 -0.033187166
-0.031085256 0.04346399 0.07975906 0.06775804 0.039151356 -0.04776543 -0.0074818805 0.02215685
-0.018207088 -0.07519233 -0.12625986 -0.022623837 -0.16701472 -0.17257074 -0.1003707 0.04343713
0.03032842 -0.08716859 -0.012915964 -0.08553334 -0.060506493 -0.11260739 -0.09131114 -0.11254626
-0.21026868 -0.15147209 0.0034380876 0.030651126 -0.021442756 0.03501465 0.0025570393 0.08202939
-0.061510317 0.04168021 -0.0208369 -0.003195572 -0.1311959 -0.020912299 -0.23179398 -0.16687487
-0.13897114 -0.011322974 -0.20728523 -0.24758923 -0.10283637 -0.14954594 -0.17725274 -0.09247875
0.001749168 0.068203725 -0.1297029 -0.22216123 -0.16260366 -0.24330342 -0.16098751 -0.2233762
-0.01755002 -0.072737984 0.031037644 -0.020706702 0.067893595 0.07841267 0.026666725 -0.005366177
-0.10249794 -0.062011812 -0.18314135 -0.22226845 -0.24362707 -0.22120573 -0.09556398 -0.099382795
-0.10397052 -0.23416378 -0.3083307 -0.23240983 -0.0802273 0.025136486 0.042731542 -0.10565708
-0.09686159 -0.09850617 -0.098249055 -0.174 -0.15489863 -0.15793118 0.03961619 -0.06601924
-0.06537539 0.013818437 0.12008178 -0.017581603 -0.103065275 -0.07646067 -0.0742615 -0.15059526
-0.28834048 -0.2926516 -0.13812053 -0.20512852 -0.24057941 -0.31708091 -0.4059223 -0.23762113
-0.16996427 -0.11214625 0.059621595 -0.030158116 0.06443893 -0.025355326 -0.0121391 -0.12531064
0.059614412 0.15570836 -0.053326394 -0.036305085 -0.016144946 -0.07876204 -0.026798721 0.09239833
-0.033334058 -0.06731676 -0.0014941223 -0.11984948 -0.07814944 -0.11193568 -0.12463946 -0.09976826
-0.1292726 -0.22940922 -0.24184833 -0.11826141 -0.10488862 0.0053774244 0.07401027 -0.089031614
0.010889272 0.037973076 -0.060936138 -0.06492462 -0.085049555 -0.067622386 -0.11905652 0.06803146
-0.04272833 0.08958133 0.10729965 0.1696493 0.056318533 -0.0032966465 0.033931963 -0.09687968
0.029979965 0.10138207 0.07749059 -0.021622721 0.047222503 0.06110033 -0.02522603 -0.013434649
0.050300457 0.15017591 0.031545836 -0.058877364 0.06238636 0.034332328 -0.017629996 -0.053957954
-0.12703852 -0.062225953 0.0662492 -0.039012372 -0.07367042 0.25547177 0.111877464 0.1832633
0.010764336 0.06544886 0.077423185 -0.05520681 0.01571767 0.031199591 -0.010371683 -0.0018782059
0.061132036 0.041090567 0.06061288 -0.07704148 0.07435275 -0.037457973 -0.039609108 0.058601007
-0.03537706 0.0006641241 -0.02520736 -0.12402263 0.009384707 0.12622407 0.16014586 -0.19585833
-0.075513475 0.05877625 0.17060275 0.12673111 0.14012109 0.05900343 -0.10234698 -0.02113673
0.095486924 0.20901087 0.08889059 0.1328849 0.13781956 0.12748313 0.012498206 0.0018323335
0.026965791 -0.08924406 0.0828663 -0.031134928 0.021962864 -0.054344185 0.037383746 0.03757376
-0.09397013 0.026064413 0.033917606 -0.07653031 -0.015218631 -0.011589465 0.24335402 0.022445418

sequential/dense_1/MatMul f4 [10, 100]
00000000: 5038 27bc 58ba 82be a97d ec3d de62 a73e
00000010: c080 06bc af59 49bf d19e da3e 79e6 bebe
00000020: 897a b9bd 035b 183e 4dab f8be a143 9bbe
00000030: e151 353e c662 93bc 5096 1bbd e4c8 17bf
00000040: fe21 c5be ee4c 4cbd aa5c fcbd 2e9b 623e
00000050: cd30 753e 4c6e f9bd 96d5 ad3e 9bb9 5bbe
00000060: 65aa f73b 5bff e8be 96f6 433e af2e d23e
00000070: 39e5 eb3d 8598 a73c f153 f5bc 62c4 e03d
00000080: effa d73d 1f04 bcbd 578d 30bf 550d 543d
00000090: 0672 8dbe 6aa2 b63d 8967 143e c20d 19bd
000000a0: f5b6 85be 92fc b1be 9bcf 753e 78c5 4ebe
000000b0: 6bb3 27bf b566 473d 63a3 8cbd 0b77 3f3e
000000c0: 4fcb 15bf a3f0 443e d4d6 19be 6b0f e6be
000000d0: 49bb 07be c0f9 f1be ffae be3d a2a9 673e
000000e0: e917 353e d7ca 3fbc 7924 04be 3bb5 95be
000000f0: 4a8c fabd 485d 55be 9077 08bf 1718 8f3e
00000100: afb8 953e 1da8 1ebe ddc2 8c3e 7041 3fbd
00000110: 704c 8abd 041b a6be f2ad 483e ea69 7a3c
00000120: f016 993d d3fa 393e fc2f 023e 6398 333c
00000130: 1943 efbe 6c2c 18be ef27 0fbf 306c ed3e
00000140: d491 3dbd 1f93 c03b 0bb5 0abe 8192 1ebf
00000150: 950c f0be b452 183e f1e2 e2bc 672a 3e3c
00000160: 62fc abbe 75ef ec3d b1dc 08bf ce41 ff3d
00000170: dae2 bb3e 33cd 0f3d 86e9 81bd ff34 49bd
00000180: e7cc 80be 0579 25bf a1c9 e13d 3107 4d3e
00000190: 2f66 4bbe 038d 093e 2e59 48bc dd6f 8a3e
000001a0: b2cb c0be 3380 9bbc f500 11be c9b7 303e
000001b0: 043e ec3d b17c 0ebe 4b3e ab3d b4be 843e
000001c0: 60f0 4abe 746b 30bb af5a 97be 4b51 0abd
000001d0: 576e 5b3e 79b8 22be cf7e 273e 1517 0d3e
000001e0: fee8 9e3e 87bb 183f 5bdb 93be e9ed 923d
000001f0: 99c8 1bbe ccde 9ebd c2a0 62be 156b cdbe
00000200: 0a5c 11be 5d70 c73e 69bc 8abd 9199 d9bd
00000210: e1b2 bcbe 4612 0cbe cb77 a13e 9572 f7bd
00000220: bef4 8cbc 4ab6 e03d 8afc 6bbe eb40 90be
00000230: 346c cebe 908c 823e eeb8 203e 4a1c c13d
00000240: 6fb8 f0be ec9d 89bd d996 a1bc 92a3 7c3e
00000250: 9bb2 d13e 2596 f83d e493 d13e c049 6dbe
00000260: faa6 a4be bd4a b93d acb9 2fbe fe37 afbc
00000270: 4cb9 8d3e f53d eb3e f786 28bb b02d 36be
00000280: 1b27 a83e 3b39 37be 0550 c93e 61e4 f33e
00000290: 59ef b8be 0dd9 b2be 5c34 5ebe 8859 a93e
000002a0: b1f2 33be 95ae 44be 727d 9abe 0a71 753e
000002b0: 3ed6 babd 6902 a0bd f6a6 90be 8206 85be
000002c0: 85e6 8f3e 7de6 94be b89a 4cbe 5c14 88be
000002d0: 567a 303e 96ee 97be fd14 673e 7dd9 923e
000002e0: 736c a93d a0a6 9e3e 2663 e9be ad2a 913e
000002f0: fad5 a23e 0673 33bf 226a 5f3e b8fe da3d
00000300: 4bc5 803e 5f74 e93c 587f ae3c e854 843e
00000310: dc4b 35be 0c33 febe 6696 17bf c2f1 d8be
00000320: 1477 393e 81c4 323e 1c15 b73d 834e 543e
00000330: 79f4 5e3e 8122 62bf 5230 313e 17fc 683e
00000340: 5aed 3e3e a880 3dbf 655e 9bbe e865 203e
00000350: ef84 903e f575 0abf 8c76 43be 99f9 233e
00000360: 2e19 f73d d2c1 c93d 47ca ae3c 0395 613b
00000370: 8f58 113e 338d 02bf 876c 083e 44b0 c23e
00000380: 2d2e dc3d a8d3 e23e 6319 a8bd 2ca7 173f
00000390: bd61 8b3e 4c07 963e 6124 983e fe0c 82be
000003a0: 8a62 813e a1a4 0ebd 85ee 003f b4d2 e6bd
000003b0: 72df c53e 01c5 01bf 3ef2 3f3e 9a62 823c
000003c0: bac5 cb3d f8d5 223e 7fe5 11bd 920e 73bc
000003d0: 63a4 bcbd 1468 06be d084 ddbd 7eec 2abf
000003e0: c713 d0be 7d80 993d 3624 a8be 24f2 4b3d
000003f0: 5909 91bd 1bcf 053f 3ba9 1d3e e8f4 8fbe
-0.010206297 -0.25532794 0.11547405 0.32692617 -0.008209407 -0.7865247 0.42699292 -0.37285212
-0.09056575 0.14878468 -0.48568192 -0.30325034 0.17707016 -0.017991435 -0.037985146 -0.5929091
-0.38502496 -0.049878053 -0.12322362 0.22129509 0.23944397 -0.121792406 0.33952016 -0.21457522
0.0075581544 -0.4550732 0.19137034 0.41051242 0.1151833 0.02045847 -0.029947253 0.10974957
0.10545909 -0.091804735 -0.6896567 0.051770527 -0.27626055 0.08917697 0.1449262 -0.037366636
-0.26116148 -0.34763008 0.24004976 -0.20192516 -0.65508145 0.048681933 -0.06867101 0.18697755
-0.5851335 0.1923242 -0.15023357 -0.44933638 -0.13255037 -0.47260857 0.093107216 0.22623304
0.17684902 -0.011706076 -0.12904538 -0.2923983 -0.12233789 -0.20836365 -0.5330744 0.27948067
0.29242465 -0.15493818 0.2749242 -0.046693265 -0.067528605 -0.32442486 0.19597605 0.015284041
0.07475078 0.18162088 0.12713617 0.010961625 -0.4673088 -0.14860696 -0.5592031 0.46371603
-0.04628165 0.005876913 -0.13545625 -0.619423 -0.468846 0.14875299 -0.027696105 0.011606789
-0.3359099 0.1156911 -0.5346175 0.12463723 0.36696512 0.035107803 -0.06343369 -0.049122807
-0.25156328 -0.64637786 0.11024786 0.20022275 -0.19863199 0.13432698 -0.012228293 0.2703847
-0.37655407 -0.018982029 -0.14160521 0.17257608 0.11535266 -0.13914753 0.08361491 0.25926745
-0.19818258 -0.0026919516 -0.29561374 -0.033768933 0.2142881 -0.15890683 0.16356967 0.13778336
0.31037134 0.59661144 -0.28878292 0.07174284 -0.1521324 -0.07757339 -0.22131637 -0.4012076
-0.14195266 0.38952914 -0.06774218 -0.106249936 -0.36855224 -0.13678846 0.31536707 -0.12082402
-0.017206546 0.10972269 -0.23045555 -0.28174528 -0.40316927 0.25497866 0.15695545 0.09429224
-0.47015712 -0.06719574 -0.01972525 0.24671772 0.40956578 0.12138013 0.40933144 -0.23172665
-0.32158643 0.09047458 -0.17160672 -0.021389004 0.27680433 0.45945707 -0.002571521 -0.17790866
0.32842335 -0.17892925 0.39318863 0.47635177 -0.36120108 -0.34931222 -0.21699661 0.3307612
-0.17573048 -0.19207223 -0.30173832 0.23968902 -0.09122895 -0.0781296 -0.2825238 -0.25981528
0.2810556 -0.290821 -0.19980896 -0.26578033 0.17234167 -0.29674214 0.225666 0.28681555
0.08272638 0.309865 -0.45583457 0.28352872 0.31803876 -0.70097387 0.2181783 0.10693115
0.25150523 0.028497873 0.021300957 0.25846028 -0.1770472 -0.4964832 -0.59213865 -0.42371947
0.18111831 0.17457773 0.08939573 0.20733075 0.21772946 -0.883339 0.17303589 0.22752415
0.1864523 -0.7402444 -0.30345455 0.15663874 0.2822642 -0.5408624 -0.19088191 0.16013183
0.120653495 0.098514214 0.021336688 0.0034421093 0.14193939 -0.509967 0.1332265 0.38025105
0.10750995 0.44302106 -0.08207967 0.5923946 0.27223006 0.29302442 0.29715255 -0.25400537
0.25270492 -0.03482497 0.5036395 -0.11270657 0.38647038 -0.5069123 0.18744752 0.015916158
0.09949823 0.15901935 -0.035619255 -0.014835017 -0.09211042 -0.1312564 -0.108163476 -0.6676711
-0.4064009 0.0749521 -0.32840127 0.04979147 -0.07081861 0.5226914 0.15396588 -0.28116536
