tflite_quant_model.tflite (tflite, 84880 bytes, 4 tensors)

sequential/dense_1/MatMul f4 [10, 100]
00000000: 5038 27bc 58ba 82be a97d ec3d de62 a73e
00000010: c080 06bc af59 49bf d19e da3e 79e6 bebe
00000020: 897a b9bd 035b 183e 4dab f8be a143 9bbe
00000030: e151 353e c662 93bc 5096 1bbd e4c8 17bf
00000040: fe21 c5be ee4c 4cbd aa5c fcbd 2e9b 623e
00000050: cd30 753e 4c6e f9bd 96d5 ad3e 9bb9 5bbe
00000060: 65aa f73b 5bff e8be 96f6 433e af2e d23e
00000070: 39e5 eb3d 8598 a73c f153 f5bc 62c4 e03d
00000080: effa d73d 1f04 bcbd 578d 30bf 550d 543d
00000090: 0672 8dbe 6aa2 b63d 8967 143e c20d 19bd
000000a0: f5b6 85be 92fc b1be 9bcf 753e 78c5 4ebe
000000b0: 6bb3 27bf b566 473d 63a3 8cbd 0b77 3f3e
000000c0: 4fcb 15bf a3f0 443e d4d6 19be 6b0f e6be
000000d0: 49bb 07be c0f9 f1be ffae be3d a2a9 673e
000000e0: e917 353e d7ca 3fbc 7924 04be 3bb5 95be
000000f0: 4a8c fabd 485d 55be 9077 08bf 1718 8f3e
00000100: afb8 953e 1da8 1ebe ddc2 8c3e 7041 3fbd
00000110: 704c 8abd 041b a6be f2ad 483e ea69 7a3c
00000120: f016 993d d3fa 393e fc2f 023e 6398 333c
00000130: 1943 efbe 6c2c 18be ef27 0fbf 306c ed3e
00000140: d491 3dbd 1f93 c03b 0bb5 0abe 8192 1ebf
00000150: 950c f0be b452 183e f1e2 e2bc 672a 3e3c
00000160: 62fc abbe 75ef ec3d b1dc 08bf ce41 ff3d
00000170: dae2 bb3e 33cd 0f3d 86e9 81bd ff34 49bd
00000180: e7cc 80be 0579 25bf a1c9 e13d 3107 4d3e
00000190: 2f66 4bbe 038d 093e 2e59 48bc dd6f 8a3e
000001a0: b2cb c0be 3380 9bbc f500 11be c9b7 303e
000001b0: 043e ec3d b17c 0ebe 4b3e ab3d b4be 843e
000001c0: 60f0 4abe 746b 30bb af5a 97be 4b51 0abd
000001d0: 576e 5b3e 79b8 22be cf7e 273e 1517 0d3e
000001e0: fee8 9e3e 87bb 183f 5bdb 93be e9ed 923d
000001f0: 99c8 1bbe ccde 9ebd c2a0 62be 156b cdbe
00000200: 0a5c 11be 5d70 c73e 69bc 8abd 9199 d9bd
00000210: e1b2 bcbe 4612 0cbe cb77 a13e 9572 f7bd
00000220: bef4 8cbc 4ab6 e03d 8afc 6bbe eb40 90be
00000230: 346c cebe 908c 823e eeb8 203e 4a1c c13d
00000240: 6fb8 f0be ec9d 89bd d996 a1bc 92a3 7c3e
00000250: 9bb2 d13e 2596 f83d e493 d13e c049 6dbe
00000260: faa6 a4be bd4a b93d acb9 2fbe fe37 afbc
00000270: 4cb9 8d3e f53d eb3e f786 28bb b02d 36be
00000280: 1b27 a83e 3b39 37be 0550 c93e 61e4 f33e
00000290: 59ef b8be 0dd9 b2be 5c34 5ebe 8859 a93e
000002a0: b1f2 33be 95ae 44be 727d 9abe 0a71 753e
000002b0: 3ed6 babd 6902 a0bd f6a6 90be 8206 85be
000002c0: 85e6 8f3e 7de6 94be b89a 4cbe 5c14 88be
000002d0: 567a 303e 96ee 97be fd14 673e 7dd9 923e
000002e0: 736c a93d a0a6 9e3e 2663 e9be ad2a 913e
000002f0: fad5 a23e 0673 33bf 226a 5f3e b8fe da3d
00000300: 4bc5 803e 5f74 e93c 587f ae3c e854 843e
00000310: dc4b 35be 0c33 febe 6696 17bf c2f1 d8be
00000320: 1477 393e 81c4 323e 1c15 b73d 834e 543e
00000330: 79f4 5e3e 8122 62bf 5230 313e 17fc 683e
00000340: 5aed 3e3e a880 3dbf 655e 9bbe e865 203e
00000350: ef84 903e f575 0abf 8c76 43be 99f9 233e
00000360: 2e19 f73d d2c1 c93d 47ca ae3c 0395 613b
00000370: 8f58 113e 338d 02bf 876c 083e 44b0 c23e
00000380: 2d2e dc3d a8d3 e23e 6319 a8bd 2ca7 173f
00000390: bd61 8b3e 4c07 963e 6124 983e fe0c 82be
000003a0: 8a62 813e a1a4 0ebd 85ee 003f b4d2 e6bd
000003b0: 72df c53e 01c5 01bf 3ef2 3f3e 9a62 823c
000003c0: bac5 cb3d f8d5 223e 7fe5 11bd 920e 73bc
000003d0: 63a4 bcbd 1468 06be d084 ddbd 7eec 2abf
000003e0: c713 d0be 7d80 993d 3624 a8be 24f2 4b3d
000003f0: 5909 91bd 1bcf 053f 3ba9 1d3e e8f4 8fbe
-0.010206297 -0.25532794 0.11547405 0.32692617 -0.008209407 -0.7865247 0.42699292 -0.37285212
-0.09056575 0.14878468 -0.48568192 -0.30325034 0.17707016 -0.017991435 -0.037985146 -0.5929091
-0.38502496 -0.049878053 -0.12322362 0.22129509 0.23944397 -0.121792406 0.33952016 -0.21457522
0.0075581544 -0.4550732 0.19137034 0.41051242 0.1151833 0.02045847 -0.029947253 0.10974957
0.10545909 -0.091804735 -0.6896567 0.051770527 -0.27626055 0.08917697 0.1449262 -0.037366636
-0.26116148 -0.34763008 0.24004976 -0.20192516 -0.65508145 0.048681933 -0.06867101 0.18697755
-0.5851335 0.1923242 -0.15023357 -0.44933638 -0.13255037 -0.47260857 0.093107216 0.22623304
0.17684902 -0.011706076 -0.12904538 -0.2923983 -0.12233789 -0.20836365 -0.5330744 0.27948067
0.29242465 -0.15493818 0.2749242 -0.046693265 -0.067528605 -0.32442486 0.19597605 0.015284041
0.07475078 0.18162088 0.12713617 0.010961625 -0.4673088 -0.14860696 -0.5592031 0.46371603
-0.04628165 0.005876913 -0.13545625 -0.619423 -0.468846 0.14875299 -0.027696105 0.011606789
-0.3359099 0.1156911 -0.5346175 0.12463723 0.36696512 0.035107803 -0.06343369 -0.049122807
-0.25156328 -0.64637786 0.11024786 0.20022275 -0.19863199 0.13432698 -0.012228293 0.2703847
-0.37655407 -0.018982029 -0.14160521 0.17257608 0.11535266 -0.13914753 0.08361491 0.25926745
-0.19818258 -0.0026919516 -0.29561374 -0.033768933 0.2142881 -0.15890683 0.16356967 0.13778336
0.31037134 0.59661144 -0.28878292 0.07174284 -0.1521324 -0.07757339 -0.22131637 -0.4012076
-0.14195266 0.38952914 -0.06774218 -0.106249936 -0.36855224 -0.13678846 0.31536707 -0.12082402
-0.017206546 0.10972269 -0.23045555 -0.28174528 -0.40316927 0.25497866 0.15695545 0.09429224
-0.47015712 -0.06719574 -0.01972525 0.24671772 0.40956578 0.12138013 0.40933144 -0.23172665
-0.32158643 0.09047458 -0.17160672 -0.021389004 0.27680433 0.45945707 -0.002571521 -0.17790866
0.32842335 -0.17892925 0.39318863 0.47635177 -0.36120108 -0.34931222 -0.21699661 0.3307612
-0.17573048 -0.19207223 -0.30173832 0.23968902 -0.09122895 -0.0781296 -0.2825238 -0.25981528
0.2810556 -0.290821 -0.19980896 -0.26578033 0.17234167 -0.29674214 0.225666 0.28681555
0.08272638 0.309865 -0.45583457 0.28352872 0.31803876 -0.70097387 0.2181783 0.10693115
0.25150523 0.028497873 0.021300957 0.25846028 -0.1770472 -0.4964832 -0.59213865 -0.42371947
0.18111831 0.17457773 0.08939573 0.20733075 0.21772946 -0.883339 0.17303589 0.22752415
0.1864523 -0.7402444 -0.30345455 0.15663874 0.2822642 -0.5408624 -0.19088191 0.16013183
0.120653495 0.098514214 0.021336688 0.0034421093 0.14193939 -0.509967 0.1332265 0.38025105
0.10750995 0.44302106 -0.08207967 0.5923946 0.27223006 0.29302442 0.29715255 -0.25400537
0.25270492 -0.03482497 0.5036395 -0.11270657 0.38647038 -0.5069123 0.18744752 0.015916158
0.09949823 0.15901935 -0.035619255 -0.014835017 -0.09211042 -0.1312564 -0.108163476 -0.6676711
-0.4064009 0.0749521 -0.32840127 0.04979147 -0.07081861 0.5226914 0.15396588 -0.28116536

sequential/dense/BiasAdd/ReadVariableOp f4 [100]
00000000: 960d 653d a45f e23c 3d46 933d 42c5 15be
00000010: 0f21 d83d febf f03d 2b23 df3d faea 14bb
00000020: 6941 8bbd ba5c c73c c6eb 55bd 33b3 f93a
00000030: 6f80 34bd 8ad8 f93d f31c 39bc b082 cc3d
00000040: 1952 943b 9831 943d 6959 053e 22e7 843d
00000050: 8686 e9bd 2aab 553d e390 bfbd 6fcb 563e
00000060: 8f9e b13c 4470 183e a5d4 0b3e bf4b 0b3d
00000070: d97c 28bb ebe7 9b3d 75c8 24bd d011 b8bc
00000080: 58b2 093e 5120 293c 3d79 5fbb 61b4 6fbd
00000090: 7b5b ae3b d31c 2c3d fb0a 67bc f15f 883d
000000a0: 6e0e 6b3e 5595 3fbd f7b4 d939 b910 5b3d
000000b0: b6ae 703c beb5 4ebd b9ec 4a3d 2d89 063e
000000c0: cbf7 04bd 14a8 303d 44fc d03d 4437 f3bb
000000d0: 5f2a 6f3d e155 dcbd a9bf 71bd 785b fd3d
000000e0: 00ee 9c3d eb7b 5a3d 263d 05bd 883f 673d
000000f0: 77d0 74bd 5dcd d23c 026f 843d 7998 853d
00000100: 13a1 de3d 1fd4 ef3d dee9 efbd d89e 653d
00000110: bfda a03d c4fe 0b3e 696e 37bb 0c4c 70bd
00000120: 42f2 40bc 5e13 82bd b272 d5bb 37ef 283b
00000130: 20d3 3f3e 7290 ad3b 6d2a 5d3e 0b76 e4bd
00000140: 284a 893d 9212 813d 3930 b5bd 455c d9bc
00000150: 47cc 403d a87c 8fbb 6300 ddbb 18d5 de3d
00000160: fc04 ca3c b807 bb3d b1de 27bd a937 263d
00000170: badd 87bd 01a7 e83d b2eb 62bd 1fef 0c3d
00000180: 1fac 5abd f618 82bd 038b 7f3d b90a 393b
0.05592116 0.027633496 0.07191131 -0.14626029 0.105531804 0.117553696 0.1089538 -0.0022723065
-0.06799585 0.024336208 -0.052226804 0.0019050598 -0.044067796 0.12199505 -0.011298406 0.09985864
0.0045263884 0.07236022 0.13022389 0.064893976 -0.114026114 0.052165188 -0.09353807 0.20976041
0.021682052 0.14886576 0.13655336 0.034007784 -0.002570918 0.07612594 -0.040230233 -0.022469431
0.13446939 0.010322646 -0.0034099363 -0.058521632 0.005320964 0.042019676 -0.014101739 0.06658924
0.22954723 -0.046773273 0.00041524295 0.053482745 0.014690092 -0.05046629 0.049542163 0.13138266
-0.032462876 0.04312904 0.10204366 -0.0074223597 0.058390018 -0.107585676 -0.059020672 0.12370962
0.076625824 0.053340834 -0.03252902 0.056457072 -0.05976912 0.02573269 0.064664856 0.065232225
0.10870566 0.11710381 -0.117145285 0.05605969 0.078542225 0.13671404 -0.0027989394 -0.058666274
-0.011776509 -0.0635135 -0.006513917 0.0025777349 0.18732882 0.0052967602 0.21598215 -0.111553274
0.06703597 0.0630237 -0.08847088 -0.026533255 0.047069814 -0.004378874 -0.006744431 0.10880488
0.02466058 0.091323316 -0.04098386 0.040580425 -0.06634088 0.113599785 -0.055400558 0.03440773
-0.053386804 -0.06352417 0.06238843 0.002823515

sequential/dense_1/BiasAdd/ReadVariableOp f4 [10]
00000000: c3d4 02be 2a95 79bd adc1 d9bc 505f 97bd
00000010: 052f 163d b67a 0c3e 5668 aabd ce33 2abd
00000020: 567f 873d ab41 873d
-0.12776475 -0.06093327 -0.02658161 -0.07391226 0.036665935 0.13718686 -0.08320682 -0.04155331
0.06616084 0.06604322

sequential/dense/MatMul i1 [100, 784] scale=0.0075426777 zero_point=0
00000000: f908 04ff 0308 08fa 0a05 0a07 f702 08fa
00000010: 02fe fb01 05ff 05fc fc06 0b09 05fa ff03
00000020: fef6 effd eae9 f306 04f4 fef5 f8f1 f4f1
00000030: e4ec 0004 fd05 000b f806 fd00 effd e1ea
00000040: eefe e5df f2ec e9f4 0009 efe3 eae0 ebe2
00000050: fef6 04fd 090a 04ff f2f8 e8e3 e0e3 f3f3
00000060: f2e1 d7e1 f503 06f2 f3f3 f3e9 ebeb 05f7
00000070: f702 10fe f2f6 f6ec dad9 eee5 e0d6 cae0
00000080: e9f1 08fc 09fd feef 0815 f9fb fef6 fc0c
00000090: fcf7 00f0 f6f1 eff3 efe2 e0f0 f201 0af4
000000a0: 0105 f8f7 f5f7 f009 fa0c 0e16 0700 04f3
000000b0: 040d 0afd 0608 fdfe 0714 04f8 0805 fef9
000000c0: eff8 09fb f622 0f18 0109 0af9 0204 ff00
000000d0: 0805 08f6 0afb fb08 fb00 fdf0 0111 15e6
000000e0: f608 1711 1308 f2fd 0d1c 0c12 1211 0200
000000f0: 04f4 0bfc 03f9 0505 f403 04f6 fefe 2003
-0.052798744 0.06034142 0.03017071 -0.0075426777 0.022628034 0.06034142 0.06034142 -0.045256067
0.07542678 0.03771339 0.07542678 0.052798744 -0.0678841 0.015085355 0.06034142 -0.045256067
0.015085355 -0.015085355 -0.03771339 0.0075426777 0.03771339 -0.0075426777 0.03771339 -0.03017071
-0.03017071 0.045256067 0.08296946 0.0678841 0.03771339 -0.045256067 -0.0075426777 0.022628034
-0.015085355 -0.07542678 -0.12822552 -0.022628034 -0.16593891 -0.17348158 -0.09805481 0.045256067
0.03017071 -0.090512134 -0.015085355 -0.08296946 -0.06034142 -0.113140166 -0.090512134 -0.113140166
-0.21119498 -0.15085356 0.0 0.03017071 -0.022628034 0.03771339 0.0 0.08296946
-0.06034142 0.045256067 -0.022628034 0.0 -0.12822552 -0.022628034 -0.233823 -0.16593891
-0.1357682 -0.015085355 -0.20365229 -0.24890837 -0.10559749 -0.15085356 -0.17348158 -0.090512134
0.0 0.0678841 -0.12822552 -0.21873765 -0.16593891 -0.24136569 -0.15839623 -0.22628033
-0.015085355 -0.07542678 0.03017071 -0.022628034 0.0678841 0.07542678 0.03017071 -0.0075426777
-0.10559749 -0.06034142 -0.18102427 -0.21873765 -0.24136569 -0.21873765 -0.09805481 -0.09805481
-0.10559749 -0.233823 -0.3092498 -0.233823 -0.08296946 0.022628034 0.045256067 -0.10559749
-0.09805481 -0.09805481 -0.09805481 -0.17348158 -0.15839623 -0.15839623 0.03771339 -0.0678841
-0.0678841 0.015085355 0.12068284 -0.015085355 -0.10559749 -0.07542678 -0.07542678 -0.15085356
-0.28662175 -0.29416442 -0.1357682 -0.20365229 -0.24136569 -0.31679246 -0.40730458 -0.24136569
-0.17348158 -0.113140166 0.06034142 -0.03017071 0.0678841 -0.022628034 -0.015085355 -0.12822552
0.06034142 0.15839623 -0.052798744 -0.03771339 -0.015085355 -0.07542678 -0.03017071 0.090512134
-0.03017071 -0.0678841 0.0 -0.12068284 -0.07542678 -0.113140166 -0.12822552 -0.09805481
-0.12822552 -0.22628033 -0.24136569 -0.12068284 -0.10559749 0.0075426777 0.07542678 -0.090512134
0.0075426777 0.03771339 -0.06034142 -0.0678841 -0.08296946 -0.0678841 -0.12068284 0.0678841
-0.045256067 0.090512134 0.10559749 0.16593891 0.052798744 0.0 0.03017071 -0.09805481
0.03017071 0.09805481 0.07542678 -0.022628034 0.045256067 0.06034142 -0.022628034 -0.015085355
0.052798744 0.15085356 0.03017071 -0.06034142 0.06034142 0.03771339 -0.015085355 -0.052798744
-0.12822552 -0.06034142 0.0678841 -0.03771339 -0.07542678 0.25645104 0.113140166 0.18102427
0.0075426777 0.0678841 0.07542678 -0.052798744 0.015085355 0.03017071 -0.0075426777 0.0
0.06034142 0.03771339 0.06034142 -0.07542678 0.07542678 -0.03771339 -0.03771339 0.06034142
-0.03771339 0.0 -0.022628034 -0.12068284 0.0075426777 0.12822552 0.15839623 -0.19610962
-0.07542678 0.06034142 0.17348158 0.12822552 0.14331087 0.06034142 -0.10559749 -0.022628034
0.09805481 0.21119498 0.090512134 0.1357682 0.1357682 0.12822552 0.015085355 0.0
0.03017071 -0.090512134 0.08296946 -0.03017071 0.022628034 -0.052798744 0.03771339 0.03771339
-0.090512134 0.022628034 0.03017071 -0.07542678 -0.015085355 -0.015085355 0.24136569 0.022628034
